mlp_model.pth (torch, 15853 bytes, 6 tensors)

network.0.weight f4 [64, 14]
00000000: 2ce7 f7bd 6f44 b73d 8375 013e f411 7fba
00000010: 29ed 743d 1454 813e df2b 1ebf 621d 04bf
00000020: 2c04 16bf d543 0b3f 731e 443f 30b1 8ebc
00000030: f32c ac3d 074d 7bbd 14cd 8e3d ffc0 833d
00000040: 8f32 2a3e ed89 043e 479b ad3e 0afa 0b3e
00000050: 695b 25bd b810 2bbe 1187 acbd ecd4 22be
00000060: ec7a 9f3e deff 7fbe 02da 51bf 5035 cd3d
00000070: d5c8 8a3e 04a4 ae3d 86a7 913e 2a1a 98bc
00000080: 3724 44bd 0d03 523e 0e64 d93c db6d 08be
00000090: 5459 893d dbf7 183d 7bdc 0f3f 9745 f2be
000000a0: 1ad7 68bf dcc6 6fbe 0a0c 973c 6a70 2e3e
000000b0: 8959 80bd f390 9bbd 12b6 823e a957 bfbd
000000c0: 5e3b 26bf f653 3dbf 9b89 53bf 73a2 fcbc
000000d0: 8ef1 a23e 28a2 fb3d 4959 8f3e cc57 7ebe
000000e0: bb50 ac3e f7e7 533d 0dfe 983d 7bab 113d
000000f0: 4646 b3bd 5851 eebd 63c4 dd3e f878 ce3e
00000100: 3d05 8b3e 0e35 913e 0ca4 933e 7f07 2bbf
00000110: 12b4 88bf 564e 883e beaf adbd 8bc7 1a3e
00000120: c86d 273e 01f3 433e 48b5 d43c 50bc 85be
00000130: a2b8 e53e f65b d63e 273b 003e b4b7 89bf
00000140: 07f7 7abf 146f f43e 9ec3 be3e f5ba 34be
00000150: d479 413e b3e6 9c3e 5e37 95bd d7d0 83bd
00000160: b277 ba3d 1751 00bf 076f e0bd ca34 a53c
00000170: 899a 00bd 398e fbbe 65c2 c2be f4dd c63e
00000180: a4e3 bf3e 3b88 37be 4861 0d3e e835 2dbd
00000190: 8ffd 42bd 5102 7b3d 94a5 0f3e a78e 903d
000001a0: e288 753e 09a4 e93e d17e 6e3e 6d03 f1be
000001b0: 4f6f e6be e6e1 093e a1f5 153e ed21 843e
000001c0: 3960 9b3d 8184 fc3d 8a09 3e3e 78ec 5dbd
000001d0: cb40 f8bd 9783 f13d f510 3cba 98cc 223e
000001e0: c3ee 823e 9d03 613f a144 503f ed6c 1c3d
000001f0: a45c b93d ead0 673e 249c ad3e a695 023e
00000200: 7961 9e3e 9979 463e 1184 353e 75ed bbbe
00000210: 0974 00be 1af1 193e 0b72 eebd 359c b4be
00000220: 91e1 a8be bbb4 89bd 1552 2b3f 01e9 483d
00000230: 8b05 04be 84bd c53d 8da7 43bd 4026 05bd
00000240: 9fee 4f3e 1a33 a13e e830 273f 7ae7 013f
00000250: 4b98 cd3e 51b0 9c3e 60e0 2d3e 8f9b 91bc
00000260: 37e8 ee3d f27a dc3d 40da 1c3e 57be 453e
00000270: 7f13 9b3e 4a05 3fbd 2cc7 183e 2b75 03bf
00000280: 9dc5 22bf f594 d0bd 1e31 1cbe e05a 623d
00000290: 305f 97bd 61a2 a5be b335 0fbe bf72 783e
000002a0: d76f 65be 477e cfbe 81ad 75bc 4781 bdbe
000002b0: a94e 4dbe 5985 b13d 6360 23be 104c 53be
000002c0: 6dcb a93c 6087 4abe b9ce 19be bc0d a73e
000002d0: 2331 8ebd 3867 953d 8462 97bd 4381 17be
000002e0: cd78 57bc 0135 15bf 3e6d 7b3e 817f 1f3d
000002f0: 57e5 ad3d f4f6 15be 031b 51be 506d 0cbf
00000300: 0db9 ffbe f27d c73e 77e7 843d 2993 fb3e
00000310: e9cc ca3b dbdf 82bd 70d5 9d3e e968 9b3d
00000320: 834f 9a3e 8192 393e 35a9 87be 2871 bcbe
00000330: 3f29 9cbe c325 f23e 503c f03e b420 2abe
00000340: ef94 8abe 0bf4 403e 4305 7bbe 913f 0fbe
00000350: 94d8 72bd 9c4a 6e3d 7b71 7d3c a3a3 643e
00000360: c72e 043e 566c 353e 5950 213e da91 743f
00000370: 5f5c 643f f40d 873e c88c 4f3e a1ef 353e
00000380: 9ce5 f4bd 4aaf 12be ea96 db3d 52a9 8f3e
00000390: 99d4 29bc 3190 cabe 7940 34be 2bf5 20be
000003a0: 77bf 12be c77f 58be 64da 883d 272f 0d3e
000003b0: 53f4 193f d74e 1e3e 97e0 243e bfa3 b83d
000003c0: bee6 603d b518 ee3c 40d5 663e fb75 a03d
000003d0: 7f53 5dbf 9c06 6dbf 47db 73bf e67c a73d
000003e0: ecd0 343e 12d7 f03d 0aed fabd 4e31 a7be
000003f0: 1b6c eebd ee15 bdbd 311d 0c3e e5b9 513e
-0.121046394 0.089485995 0.12642483 -0.0009730153 0.059796486 0.2525946 -0.6178569 -0.51607335
-0.58600116 0.5440038 0.7660896 -0.017418474 0.08407011 -0.061352756 0.06972709 0.064332955
0.16620849 0.1294324 0.3390753 0.13669601 -0.04037038 -0.16705596 -0.084241994 -0.15901536
0.3114847 -0.2499995 -0.8197328 0.10019934 0.27106348 0.08527377 0.28448123 -0.018567163
-0.0478861 0.20508976 0.026536968 -0.13323157 0.06706491 0.03734575 0.561958 -0.47318718
-0.9095322 -0.23415703 0.018438358 0.1703507 -0.062670775 -0.07596006 0.25529534 -0.09342892
-0.6493434 -0.7395624 -0.82631844 -0.03083918 0.31824917 0.12286788 0.27997807 -0.2483818
0.33655342 0.05173489 0.07470331 0.035563927 -0.08753638 -0.11636609 0.43313894 0.40326667
0.27152434 0.2836079 0.28836095 -0.66808313 -1.0679953 0.26622266 -0.08480786 0.15115182
0.16350472 0.19135667 0.025965348 -0.26120234 0.44867426 0.41867036 0.12522565 -1.0759187
-0.98033184 0.47740996 0.3725862 -0.17649443 0.1889413 0.3064476 -0.07285951 -0.064363174
0.09104861 -0.50123733 -0.10958677 0.020166773 -0.031397376 -0.49131945 -0.38038936 0.38841212
0.37478364 -0.17923062 0.13806641 -0.042287737 -0.047605094 0.061281506 0.14028007 0.07058459
0.23977998 0.4563296 0.23290564 -0.47072926 -0.45006797 0.1346508 0.14644481 0.25807133
0.075867124 0.123299606 0.18558326 -0.054180592 -0.12121733 0.11792677 -0.00071741577 0.15898359
0.25572786 0.8789614 0.8135472 0.038189817 0.09050873 0.22638288 0.33908188 0.12752399
0.3093374 0.19382323 0.1772616 -0.36704603 -0.12544264 0.15033379 -0.11642846 -0.35275427
-0.32984594 -0.06723925 0.6692212 0.049050335 -0.1289274 0.09655288 -0.04776721 -0.03250718
0.2030587 0.314843 0.65309 0.5074383 0.40155253 0.3060327 0.16980124 -0.017774371
0.11665385 0.107656375 0.15317631 0.1931089 0.30288312 -0.046635903 0.14919728 -0.5135066
-0.63582784 -0.10184661 -0.15253112 0.055262446 -0.073912024 -0.32350448 -0.13985328 0.24262522
-0.22405945 -0.4052603 -0.01499498 -0.37012693 -0.20049538 0.08668012 -0.15954737 -0.20634484
0.020726884 -0.19778204 -0.15020265 0.32627666 -0.06942966 0.07295078 -0.07391837 -0.14795403
-0.01315136 -0.58284 0.24553391 0.038939957 0.08491009 -0.14644986 -0.2042046 -0.548543
-0.4994587 0.38963276 0.06489461 0.49135712 0.006188978 -0.06390353 0.30826902 0.075883694
0.30138788 0.18122293 -0.26496282 -0.3680508 -0.30500218 0.47294435 0.46921015 -0.16614038
-0.27066752 0.18843095 -0.24513726 -0.13989092 -0.059288576 0.05817662 0.01546895 0.22328047
0.12908469 0.17717108 0.15753306 0.9553505 0.8920345 0.26377833 0.20268548 0.17767192
-0.11957857 -0.1432468 0.10722144 0.2805887 -0.010365629 -0.39563134 -0.1760272 -0.15718524
-0.1433085 -0.21142493 0.0668228 0.13787518 0.60138434 0.15459763 0.16101299 0.09015607
0.054907553 0.029064516 0.22542286 0.07835003 -0.8645553 -0.9258821 -0.95256466 0.08178119
0.17657822 0.117597714 -0.12252243 -0.32654804 -0.11641713 -0.092326984 0.1368301 0.2048107

network.0.bias f4 [64]
00000000: 0c57 b83d 7a97 903e 1082 5cbd f52f a63e
00000010: c76f 4ebe d269 1ebb f5f7 9b3e e46e 293e
00000020: 776b dfbd 99e2 ab3e 4944 17be 8cf0 813e
00000030: 5441 0e3f 42ac 013e 3a3d 793e fb52 8f3d
00000040: 0a0d 9e3e 01a7 8cbc 1fc5 bbbd 19a8 903e
00000050: b473 323c b3ee 253f f8e5 4cbe 50c5 ff3b
00000060: 4c61 e23e b957 673e 9976 983d a9a2 25be
00000070: 0385 083f a6ba 953d 733d abba 2855 243e
00000080: 9d26 b33e 2087 11be a22d 313e b843 07be
00000090: 9563 b33e 36f2 3abe 21e9 9a3e 9d3a 813e
000000a0: c3ab 3ebe d3e1 3d3d 03d4 1d3b 4145 c53d
000000b0: 2227 153f cc5c b53e 26d1 f8bb 6a00 ae3d
000000c0: 120f 183e 95e6 3ebd 3dac b83e 0576 9a3e
000000d0: d9a7 a6bc 036f ebbd bd41 a23c 5879 e43e
000000e0: ad49 0abe b7c1 64bc d77b 56be 5643 20be
000000f0: a054 e53e 9f1f 9b3e ec64 b23e bd07 87bd
0.09000978 0.28240567 -0.053834975 0.32458463 -0.20159827 -0.002417196 0.30462614 0.16546208
-0.10909169 0.33571318 -0.14772142 0.25378835 0.5556843 0.12663367 0.24339762 0.06998249
0.30869323 -0.017169477 -0.09168457 0.28253248 0.010891844 0.6481735 -0.20009601 0.007805504
0.44214857 0.22592057 0.07444496 -0.16175331 0.5332796 0.07310991 -0.0013064578 0.1604811
0.34990397 -0.14211702 0.17302564 -0.13209426 0.35036913 -0.18256459 0.30255988 0.2524003
-0.1862021 0.04635794 0.0024082668 0.0963235 0.58262837 0.3542236 -0.007593292 0.08496173
0.14849499 -0.04660662 0.36068907 0.30168167 -0.020343708 -0.11495783 0.019806737 0.44623828
-0.13504668 -0.013962201 -0.20945679 -0.15650687 0.44791126 0.30297562 0.34842622 -0.06593273

network.2.weight f4 [32, 64]
00000000: 7c9b 173d d45e 4d3d 6a65 8dbd a2ba debd
00000010: 8ac3 b7bd 989c 40bd 8677 a0bd c4bc 193d
00000020: e0d8 e23d a090 f2bd 8453 fabd 1aa0 983d
00000030: 846d c63d e0aa c0bb 3201 d8bd 328e e3bd
00000040: d0b8 913c ec57 94bd 68c6 babc e696 bcbd
00000050: 3e3a a83d b6dd e1bd bc96 5fbd e0ef a0bc
00000060: 9086 6e3d 066e b13d 0032 e33b 68e7 53bd
00000070: c0f6 3d3c 2213 adbd da00 b0bd 7822 b0bd
00000080: e028 023c 6293 8a3d 74c5 6dbd 8098 8f3c
00000090: de72 d8bd e8ce bd3d 7aa9 bd3d 247c eebd
000000a0: 805f 883a 2603 813d 4453 78bd 28eb a33d
000000b0: e07b 40bd c2d6 e9bd e048 12bc 3a75 ebbd
000000c0: 5c2b d53d d046 8cbc de82 efbd a092 313c
000000d0: e25c d0bd a815 f33d 8053 2dbb f8db e33c
000000e0: 3eb6 b93d c0cf e93c e8ff 0bbd 883d f23d
000000f0: d849 24bd 727d 8abd 00f0 6439 8c46 18bd
00000100: 244d 633d ee4f f6bd 04e8 aabd 58be 6c3d
00000110: 88ed cabd e4b1 48bd 3c83 243d faf6 93bd
00000120: 6a9e fabd 9c92 083d c2a6 e3bd b0ce cabc
00000130: b892 ac3d 48af 4bbd 804a 9bbc 58db 91bc
00000140: 30d0 58bc 9c2b bfbd a081 3f3d 62e9 d53d
00000150: 40be a03c 58b4 d63c 184c 913d 28ef 0bbd
00000160: 401d b53d 80a6 a73c 2c7b 97bd f05c 9c3c
00000170: a49b 3f3d 7025 83bc 0038 4fb9 985a d23d
00000180: a87d ee3c e400 073d 98be ed3c 3c5e a8bd
00000190: f49d 9cbd 5061 f53c f2de edbd 6ef6 f0bd
000001a0: 20e5 e23b 7c07 febd 9e6a 8b3d 5875 cbbd
000001b0: 580d f0bd 2082 443d d005 eabc 3810 8dbc
000001c0: 0447 f03d a07c 1abc 141e 6abd c0cb 55bb
000001d0: e4ef 98bd 3afd e3bd e82c acbc 9cef 48bd
000001e0: 1816 da3c 048e 81bd 1836 a33c 482e f6bc
000001f0: ec57 c9bd f868 f8bc 54c2 73bd 70bb c7bd
00000200: 92f9 68bd e6cf 81bd c399 9d3d 87fc 65bd
00000210: aba2 06be 1a9e 56bd a381 7a3d 4337 fcbd
00000220: 969a e53c 17fa 97bc db86 d9bd 041b a3bd
00000230: b0a0 d7bd 5b46 d7bd c333 fdbd 1f93 ab3c
00000240: 48e7 c1bd ea62 1bbd 8603 483d fe88 b9bc
00000250: 3dd4 abbb f429 8ebd 06ba 8cba aec1 15bd
00000260: b17c cdbc 8a31 c2bd d32b debd 75ee eabd
00000270: f74f c03d 8a9d b53d da6f 89bd 40ab 2ebd
00000280: b492 3b3d 7fd9 9cbd bc3f 89bd 5bdd 0cbe
00000290: c090 dc3b a532 603d f1c4 f4bd ae98 9d3d
000002a0: 8d6d c2bc 077a 843c fad7 b7bd 80c5 97bb
000002b0: 8d01 1dba 7fc3 423d 6bcc cc3d 1d97 25bc
000002c0: 2c0b 84bd f33b a83c 02db 21bd 638b 9f3d
000002d0: 75e1 bc3d 5db8 6b3d e89f 76bd 3adf ec3c
000002e0: 39e5 0cbe 0032 823a f8ba c0bd 790b 973d
000002f0: 7d5f 0fbd 0626 413d e01b 0ebc 9aaf b63c
00000300: 2745 a3be 9156 04bd a2c7 8abe 5ef8 06bc
00000310: c74e 1abe eb2e c73e 36b6 df3e d261 1a3d
00000320: 449c 86be fc85 033e 610c 2c3e 4a80 813c
00000330: 00db e7be 09a7 5bbf b65f 89be bb16 6cbe
00000340: da13 373e c283 93be cfc1 503d 7366 83be
00000350: 0ced bdbd 863b f9be b6ae a3bd d718 aa3e
00000360: 6f17 97be 1d8e 6dbd ac98 143e 0709 a03e
00000370: bb6e c1be bc72 873e 03e1 12bd b290 4b3e
00000380: e90f 943d 5401 78be 4699 943d 3a0a 1bbe
00000390: dba8 f7be ff45 d53d 4df9 683e 8198 1c3e
000003a0: e7c0 26be 9888 2a3e 7ee4 aabe 56ba bc3d
000003b0: 8cd6 00bf c724 91bd d594 a8bd 7f76 c7bd
000003c0: c86e ca3d 8bf5 713e 45cc 663e ff70 bdbc
000003d0: d6d2 633e 9a82 f3bd fd39 db3d da3e 023e
000003e0: 7b4d 4ebd 557e f63e 7bc3 47bc fa36 823e
000003f0: ba18 afbe f6e5 c23d 1a3c 8b3e ea4b b43d
0.037013516 0.050139263 -0.06904109 -0.10875441 -0.08972843 -0.04702434 -0.07835297 0.037533537
0.11076522 -0.11843991 -0.122229606 0.07452412 0.09688857 -0.005879745 -0.10547103 -0.11111106
0.01778832 -0.07243332 -0.022799686 -0.09208469 0.08214234 -0.11028616 -0.05458711 -0.019645631
0.058233798 0.086635634 0.0069334507 -0.051734358 0.011594474 -0.08450915 -0.085939124 -0.086003244
0.007944316 0.06766392 -0.058049634 0.017528772 -0.10568784 0.0926798 0.09260841 -0.11644772
0.0010404438 0.06299429 -0.060626283 0.08003837 -0.046993136 -0.11417915 -0.008928508 -0.114969686
0.10408661 -0.01712361 -0.11694883 0.010838181 -0.10173966 0.11869365 -0.0026447475 0.02781485
0.09067963 0.028541446 -0.034179598 0.118281424 -0.040109485 -0.06762208 0.00021833181 -0.037176654
0.05549349 -0.12026964 -0.08345035 0.057798713 -0.09908587 -0.048997775 0.040164217 -0.072248414
-0.12237246 0.033342943 -0.11115791 -0.02475676 0.08426422 -0.049727708 -0.018956423 -0.017804787
-0.0132332295 -0.0933449 0.04675448 0.10444905 0.019621968 0.026209041 0.07094592 -0.034163624
0.088434696 0.020465136 -0.0739654 0.019087285 0.04677929 -0.016009063 -0.0001976192 0.10271186
0.029112652 0.032959834 0.029021546 -0.08221099 -0.07647315 0.029953629 -0.11614789 -0.11765753
0.0069242865 -0.12403771 0.06807445 -0.09934491 -0.11721295 0.04797566 -0.028567225 -0.017219648
0.11732295 -0.009429127 -0.05715759 -0.0032622665 -0.074676305 -0.111322835 -0.021017507 -0.049056634
0.026621863 -0.063259155 0.019923255 -0.030051365 -0.09831223 -0.03032349 -0.059511498 -0.09752548
-0.056878634 -0.063384816 0.07695343 -0.056149032 -0.1314799 -0.05239687 0.061158787 -0.12315228
0.028027814 -0.01855187 -0.10621425 -0.07964137 -0.105286956 -0.10511466 -0.123633884 0.020944176
-0.094679415 -0.03793613 0.048831485 -0.02264833 -0.0052438066 -0.06941596 -0.0010736592 -0.03656166
-0.025083872 -0.09482105 -0.108482026 -0.11471263 0.09390252 0.08867939 -0.06710787 -0.042643785
0.045794204 -0.076586716 -0.067016095 -0.13756315 0.0067311227 0.0547358 -0.11951626 0.07695137
-0.023733879 0.016171468 -0.08976741 -0.004631698 -0.0005989306 0.04754972 0.09999927 -0.010106829
-0.06447443 0.020536399 -0.039515503 0.07790258 0.0922269 0.05754887 -0.060211092 0.028915036
-0.13759317 0.0009933114 -0.094106615 0.07375235 -0.035003174 0.047155403 -0.008673638 0.02230053
-0.31888697 -0.03230912 -0.27105433 -0.008237926 -0.15069114 0.38902983 0.43693703 0.037690945
-0.26291096 0.1284408 0.16801597 0.015808243 -0.4528427 -0.8580175 -0.26830834 -0.23055546
0.17878667 -0.2881146 0.05096608 -0.256641 -0.09273729 -0.48678225 -0.07992308 0.33222076
-0.29510066 -0.057996858 0.14511365 0.31256887 -0.37779793 0.26454723 -0.03585912 0.19879416
0.07229597 -0.24219257 0.07255797 -0.1514062 -0.48371014 0.10413741 0.2275135 0.1529255
-0.16284524 0.16653669 -0.3337745 0.09215228 -0.5032737 -0.07087093 -0.082315125 -0.09739398
0.09884411 0.23628823 0.2253886 -0.02312517 0.22248396 -0.11890145 0.1070442 0.12719288
-0.05036686 0.4814326 -0.012192602 0.2543257 -0.34198552 0.09516518 0.2719429 0.08803542

network.2.bias f4 [32]
00000000: 9068 9ebd f0b0 663c 05c1 3b3d 739b bf3d
00000010: 1e00 ab3e 0d7c c43d 8f6a d63d 459e cfbb
00000020: 18cb 8d3e cfd8 05bd a368 82bb b0eb 5e3e
00000030: 285b b83d 18b0 9f3d 62c1 9dbd 402a 78bd
00000040: d7cd 803d 0064 5ebd 6d02 24bc b14c 7bbc
00000050: 1811 3b3e c35c d1bd f8a7 d73d e375 8d3d
00000060: c262 773d d5e2 48bd 8299 24bd 027f 4e3d
00000070: 3bba 6a3d f173 1e3e 9193 313e 165c fcbb
-0.077347875 0.014080271 0.045838375 0.093558215 0.33398527 0.09593973 0.10469543 -0.006336006
0.2769401 -0.032677468 -0.003979759 0.21769595 0.09001762 0.07797259 -0.077029005 -0.060587168
0.06289261 -0.054294586 -0.010010344 -0.015338109 0.1826824 -0.10222771 0.10530084 0.06907251
0.060396917 -0.04904445 -0.04018546 0.050414093 0.05730651 0.15473916 0.17341448 -0.007701407

network.4.weight f4 [4, 32]
00000000: 4ebe 6bbd b0d9 873c 58b7 de3d d003 863e
00000010: e639 b63d bd41 37be a81c 9dbe 8200 75be
00000020: 9df9 28be 68bc 1f3e 98d3 a2bd 3fd2 44be
00000030: fcaa f43e e800 f0be 3310 ba3c c6eb cb3d
00000040: 09b7 3a3c a405 42be 509c d23e b045 bebe
00000050: ef88 ecbe 135b acbd c9ec cebe 8040 2b3f
00000060: d215 963e 4439 393d 7705 593e 1ebd 243e
00000070: d721 803d 34cf c33c 5688 7f3e 6dc2 dabd
00000080: 7ac8 e3bd 8727 adbd e6fc d33d f6ea 47be
00000090: 25d8 67bd e32b 633e ca29 47be f280 96bd
000000a0: e8c6 bbbe 37cc d4bd 7cea c4be c244 92be
000000b0: de37 a7bd 1f13 bd3d 3233 22bd cedc 25be
000000c0: a945 11bf 159b c63e 9ee2 f6bd 0477 ed3e
000000d0: a79f a6bd 8a00 19bd 38a0 2e3e ca53 823d
000000e0: 1625 1e3f ef1a d03d f4ef c1be a7f6 c23e
000000f0: 4472 8a3d 89dd 1cbf da3c 86bd 8477 f23d
00000100: 188d f53c 3e22 b13d 89af 173e 52d9 b93e
00000110: 55e9 40be d30a b2be 5384 6f3e c7ac 0c3f
00000120: 87ed 8d3e f153 4d3d a2d0 033f 152f bebe
00000130: 2a6a b3bd 9e5c 31bd a5dc 5a3d bcaa 2fbd
00000140: 05bd 80bd 116d 6f3e be77 bfbe 2448 a73e
00000150: 97ab f43d b244 9f3d 1c6d cb3d 24ff 913d
00000160: aa5c 473e 0cd5 a13d eab3 07be b91c 60be
00000170: 4886 9e3d c2be a63e 3c11 bf3d c3f2 a0be
00000180: be48 b43d e4e4 083d b144 083d 0d2c 463d
00000190: 1045 b23f 5bc2 79be 8357 59be fa5e c8bc
000001a0: 3ac0 903e 6af8 6c3d 329c 15be 26cb 5e3e
000001b0: 940e 66be 3409 823e 79e4 bfbe 28af 8fbc
000001c0: 7d51 093d 02e6 c0bd 2ec9 d53d 0d0d 543e
000001d0: f30d a1bd fc3c 0a3e a279 90be ed89 2ebe
000001e0: 84fe d73d 438d 1abd fe88 7b3e bb4d 56be
000001f0: 503d 4bbd fe6d a8bd 0e9d 35be 30d1 cb3e
-0.057554536 0.016583294 0.10874814 0.26174784 0.08897762 -0.17896171 -0.30685925 -0.23925975
-0.1650147 0.15599215 -0.079505146 -0.19220828 0.477867 -0.4687569 0.022712803 0.099570796
0.011396178 -0.18947464 0.41134882 -0.37162542 -0.46198222 -0.084158085 -0.40415028 0.66895294
0.29313523 0.04522063 0.21193491 0.16087767 0.062564544 0.023902513 0.24954352 -0.10681615
-0.11122222 -0.08454805 0.10350971 -0.19523224 -0.056602616 0.2218471 -0.19449535 -0.07348813
-0.3667519 -0.103905134 -0.38460147 -0.28568083 -0.08164953 0.09232163 -0.039599605 -0.16197512
-0.5674692 0.38790193 -0.120549425 0.46379864 -0.0813592 -0.03735403 0.17053306 0.06363638
0.6177534 0.10161387 -0.37878382 0.38078806 0.06760076 -0.61275536 -0.06554575 0.11839202
0.029974505 0.08649109 0.14813055 0.36298615 -0.18839009 -0.34773883 0.23390321 0.5495114
0.2772028 0.05012888 0.51490223 -0.37145296 -0.087604836 -0.043301217 0.05343308 -0.042887434
-0.062860526 0.2338145 -0.37396044 0.32672226 0.11946791 0.077767745 0.0993292 0.07128742
0.19468942 0.079019636 -0.13252226 -0.21885957 0.07740456 0.32567412 0.09329459 -0.31435212
0.08802937 0.033421412 0.033268634 0.048381854 1.3927326 -0.24390547 -0.2122479 -0.02445935
0.28271657 0.057854094 -0.14610365 0.21757182 -0.22466499 0.25397646 -0.37478998 -0.017539576
0.03352498 -0.094188705 0.104387626 0.20708103 -0.07863989 0.13499826 -0.28217798 -0.17044802
0.10546592 -0.037732374 0.24563977 -0.2092809 -0.04961902 -0.08224104 -0.17735693 0.39808035

network.4.bias f4 [4]
00000000: fa38 323d 2e88 d1bd b153 a9bd e362 843c
0.04351137 -0.10231052 -0.08267916 0.016160434
